cache/ViT-L-14_openai_movements.safetensors (safetensors, 307408 bytes, 2 tensors)

embeds f2 [200, 768]
00000000: 8da9 561e 5e25 0828 6e22 a327 c71f f224
00000010: 250e a498 471b 0899 2a20 d6a2 f1a2 2ca6
00000020: c5a2 5024 7c22 b71f 332b 77a3 4a1c 9a1d
00000030: f823 1c20 fd21 b0a2 2ca6 25a7 c524 c824
00000040: 9521 a91d 7aa0 4e98 e323 fd22 0227 05a9
00000050: 851d 9820 a728 9a9d 96a1 2926 91a6 d318
00000060: 991c 92a4 83a5 d59f e024 9621 539d 1718
00000070: 21a1 359a e524 9722 2b24 4f27 b019 2da7
00000080: 23a8 3d28 a001 d4a7 3f26 cf1b dc24 2ba5
00000090: 50aa 7998 bf23 9d9d e125 9f0a d89c 4ea8
000000a0: c99c cf21 a524 1f11 cd0c 8518 2925 3c24
000000b0: 411f 8a24 e91e 3ea2 3f1c 4911 7924 7e1a
000000c0: 43a4 c6a1 e320 e61e 51a7 509a 8d23 0094
000000d0: f621 b7a4 d723 e922 7ba1 43a8 ffa4 30a4
000000e0: 9913 d18e fda5 9ea3 57a0 0a99 8a2b 2324
000000f0: f5a4 361d b625 f21b de1e 6114 4b98 56a7
00000100: 6fa4 89a6 4819 3ca2 579f 8fa1 e7a7 dc9c
00000110: 7196 0020 9f29 dfa2 3588 76a2 409d 251d
00000120: 3e21 a099 d399 39a6 f49d c424 ac24 5e9c
00000130: 15a0 a3a3 25a5 9928 0ba4 57a4 7721 c01e
00000140: aaa5 521f 7a25 1c20 cb25 491f 1f21 0595
00000150: b021 9a99 4b9d 418c 231f dc1e 8223 2b24
00000160: aa19 26a8 db28 7e1d a6a0 9fa5 aca4 d6a4
00000170: ab23 06a0 9c13 9da6 9e23 e7a5 9ba3 df9a
00000180: fc25 bba6 9c28 34b0 021a c824 9d1e 7fa4
00000190: 381a 012d 8da4 39a8 1d9f 0890 3b21 0419
000001a0: 6b1e 831f 2f20 97a5 3720 a71d 309f 2d16
000001b0: 0d17 5421 c1a3 5f20 1e28 4425 c39c 6528
000001c0: 991b 1217 13a5 9c9a 0724 0d8e 83a7 6d24
000001d0: 33a9 5e21 3da4 8324 f51f 9a25 0f1c 14a8
000001e0: 11a0 67a0 4e19 ba25 73a1 8481 9d19 51a8
000001f0: 0b25 6c22 701c 4e21 5021 8c1e 56a2 a929
-0.04337 0.006187 0.02097 0.0315 0.01256 0.02983 0.007595 0.01932
0.000375 -0.002266 0.003553 -0.002457 0.00813 -0.01335 -0.01356 -0.02411
-0.01322 0.01685 0.012665 0.007534 0.05624 -0.01458 0.00419 0.00547
0.015564 0.008026 0.011696 -0.01306 -0.02411 -0.02791 0.01863 0.01868
0.0109 0.005527 -0.00874 -0.002102 0.0154 0.01365 0.02737 -0.0392
0.00539 0.00897 0.03635 -0.00547 -0.01091 0.02406 -0.02565 0.002356
0.00449 -0.01785 -0.02153 -0.00765 0.01904 0.01091 -0.0052 0.001997
-0.01002 -0.00303 0.01912 0.01287 0.01628 0.02855 0.002777 -0.02803
-0.03232 0.0331 2.48e-05 -0.03058 0.0244 0.003813 0.01898 -0.02019
-0.04932 -0.002184 0.01513 -0.00548 0.02296 0.0002021 -0.00473 -0.03363
-0.004673 0.011345 0.01814 0.000625 0.000293 0.002207 0.02016 0.01654
0.007084 0.01773 0.00675 -0.01219 0.004147 0.000645 0.01747 0.00317
-0.01665 -0.01128 0.009544 0.006737 -0.02858 -0.003082 0.01475 -0.000977
0.01164 -0.01842 0.01531 0.0135 -0.010704 -0.0333 -0.01952 -0.01636
0.0009274 -0.000416 -0.02339 -0.01488 -0.00848 -0.00246 0.0589 0.01616
-0.01936 0.00509 0.02231 0.00388 0.006706 0.001069 -0.002096 -0.02866
-0.01732 -0.02553 0.002579 -0.01218 -0.007168 -0.01086 -0.03087 -0.004745
-0.001573 0.007812 0.0439 -0.01342 -0.0001284 -0.01262 -0.005127 0.005024
0.01024 -0.002747 -0.002844 -0.0243 -0.005814 0.01862 0.01825 -0.004265
-0.00797 -0.014915 -0.0201 0.03592 -0.0158 -0.01695 0.01067 0.00659
-0.02213 0.00715 0.0214 0.008026 0.02263 0.007114 0.01 -0.001225
0.01111 -0.002735 -0.00517 -0.0002596 0.00697 0.0067 0.01466 0.01628
0.002766 -0.0324 0.03793 0.005363 -0.00908 -0.02196 -0.01825 -0.01889
0.01498 -0.00786 0.000929 -0.02583 0.01488 -0.02306 -0.014854 -0.003355
0.02338 -0.02629 0.036 -0.1313 0.002934 0.01868 0.00646 -0.01756
0.003036 0.0782 -0.01778 -0.033 -0.006947 -0.000492 0.010216 0.002449
0.006268 0.007336 0.00817 -0.02184 0.00823 0.00552 -0.00702 0.001508
0.001721 0.01041 -0.015144 0.00854 0.03217 0.02057 -0.00465 0.03433
0.00371 0.001726 -0.01982 -0.003227 0.01573 -0.0003693 -0.02934 0.01729
-0.04062 0.01048 -0.01656 0.01762 0.00777 0.02188 0.003963 -0.03186
-0.00794 -0.0086 0.00259 0.02237 -0.01064 -2.31e-05 0.00274 -0.03372
0.0197 0.01254 0.004333 0.01036 0.010376 0.006393 -0.012375 0.04422

hash i1 [64]
00000000: 6331 6130 3264 6638 3338 3530 6366 3737
00000010: 6631 3964 3630 3232 3366 6464 3332 6362
00000020: 3031 6633 6365 3164 3165 3831 3535 3238
00000030: 6133 6537 6165 6437 3038 3736 3235 6134
99 49 97 48 50 100 102 56
51 56 53 48 99 102 55 55
102 49 57 100 54 48 50 50
51 102 100 100 51 50 99 98
48 49 102 51 99 101 49 100
49 101 56 49 53 53 50 56
97 51 101 55 97 101 100 55
48 56 55 54 50 53 97 52
