cache/ViT-L-14_openai_trendings.safetensors (safetensors, 110799 bytes, 2 tensors)

embeds f2 [72, 768]
-0.0203 0.00464 -0.006657 -0.004 -0.0006056 -0.0083 0.01093 0.00435
0.0003247 0.01474 -0.000891 0.01287 -0.0037 0.009125 -0.04218 -0.01106
-0.008804 0.03476 0.05975 -0.00979 0.0376 0.02283 0.0008564 0.02315
0.01823 0.01183 -0.00355 -0.01305 0.01645 0.009346 0.005928 0.009094
-0.03375 0.01753 -0.009605 -0.01125 0.01842 0.003426 -0.00832 -0.013916
0.00829 0.002378 0.02307 -0.01101 0.02919 0.02895 -0.0005703 -0.01633
-0.01515 0.01578 0.02403 -0.02289 -0.02393 0.01761 -0.01694 0.01005
-0.01264 0.0003126 0.013504 0.0002651 0.02252 0.0222 -0.002144 -0.02287
-0.01083 0.016 0.00446 -0.007614 0.000777 -0.007412 0.0187 0.001429
-0.001213 -0.004475 -0.003407 0.006443 0.04688 0.02185 0.0265 -0.02525
-0.04068 -0.03119 0.006985 -0.00429 0.002457 0.01026 0.004128 0.02245
-0.00622 -0.00905 -0.01833 0.0169 -0.00713 0.005962 -0.02417 0.01522
0.0006695 0.00971 0.01469 -0.02287 -0.00581 -0.01422 -0.00692 0.01892
0.006145 -0.00881 0.00932 -0.002993 -0.004387 -0.00406 -0.01987 0.01186
0.01232 0.003262 0.00485 -0.0005217 0.01797 -0.00564 0.01418 0.02376
0.002533 -0.01489 -0.01165 -0.01955 0.0194 0.05518 -0.02736 0.01581
-0.00103 -0.003025 -0.02332 -0.005512 -0.02214 -0.01877 -0.004307 -0.01285
0.01536 0.02983 -7.81e-05 0.00306 0.0124 0.0409 -0.0327 -0.00661
0.01627 -0.01044 0.0002348 0.02902 0.005276 0.02223 0.003796 5.66e-05
-0.0207 -0.0168 -0.02016 -0.002428 -0.02155 -0.00913 0.00928 0.004326
0.0158 0.012665 0.001652 -0.002575 0.004208 0.007298 -0.02525 0.02583
-0.0382 0.0044 -0.00631 -0.008415 -0.01 0.007835 0.0004203 0.03506
0.04065 -0.03842 0.07043 0.00933 0.018 -0.004368 -0.01797 0.00599
0.0154 -0.0129 0.0131 -0.009865 0.03119 -0.0337 -0.0163 -0.03473
0.006218 -0.00512 0.02972 -0.0841 -0.0007067 -0.0194 -0.002604 0.0136
0.013435 -0.00853 -0.013084 0.00434 0.0003834 0.01201 -0.01585 0.04514
0.01307 0.02193 -0.01489 0.00509 0.006996 0.0003276 0.01947 -0.01915
0.02222 0.01533 0.001548 -0.01007 0.00414 0.00472 0.02365 -0.01883
0.01399 0.02267 -0.03824 0.00718 0.00549 -0.02104 -0.0004685 -0.02173
-0.0085 0.0213 -0.00641 0.02286 0.01581 0.011795 0.00504 0.009476
0.005413 -0.007786 -0.001378 0.00906 0.007168 -0.006977 0.006996 -0.006245
-0.01732 0.0002362 0.0229 -0.00573 0.01682 0.02791 -0.003258 0.02411
00000000: 32a5 c01c d19e 199c f690 40a0 9921 741c
00000010: 520d 8c23 4d93 9722 949b ac20 66a9 aaa1
00000020: 82a0 7328 a62b 03a1 d028 d825 0413 ed25
00000030: ab24 0f22 459b aea2 3624 c920 121e a820
00000040: 52a8 7d24 eba0 c3a1 b724 041b 43a0 20a3
00000050: 3f20 df18 e825 a3a1 7927 6927 ac90 2ea4
00000060: c2a3 0a24 2726 dca5 20a6 8224 56a4 2521
00000070: 79a2 1f0d ea22 580c c425 af25 6498 dba5
00000080: 8ca1 1924 911c cc9f 5d12 979f ca24 da15
00000090: f894 959c fa9a 991e 002a 9825 c926 77a6
000000a0: 35a9 fca7 271f 659c 0819 4121 3a1c bf25
000000b0: 5f9e a2a0 b1a4 5424 4d9f 1b1e 30a6 cb23
000000c0: 7c11 f920 8523 dba5 f39d 48a3 169f d824
000000d0: 4b1e 83a0 c620 219a 7e9c 289c 16a5 1322
000000e0: 4f22 ae1a f71c 4690 9a24 c69d 4323 1526
000000f0: 3019 a0a3 f7a1 01a5 f724 102b 01a7 0c24
00000100: 3894 329a f8a5 a59d aba5 cea4 699c 94a2
00000110: dd23 a327 1e85 441a 5922 3c29 30a8 c59e
00000120: 2a24 58a1 b20b 6e27 671d b125 c61b b603
00000130: 4da5 4da4 29a5 f998 84a5 ada0 c020 6e1c
00000140: 0b24 7c22 c416 4699 4f1c 791f 77a6 9d26
00000150: e4a8 811c 769e 4fa0 1fa1 0320 e30e 7d28
00000160: 3429 eba8 822c c720 9c24 799c 9aa4 221e
00000170: e323 9ba2 b522 0da1 fc27 50a8 2ca4 72a8
00000180: 5e1e 3e9d 9c27 62ad ca91 f7a4 5599 f722
00000190: e122 5ea0 b3a2 721c 480e 2622 0fa4 c729
000001a0: b122 9d25 a0a3 361d 2a1f 5e0d fc24 e7a4
000001b0: b025 d923 5716 28a1 3d1c d51c 0e26 d2a4
000001c0: 2a23 ce25 e5a8 5a1f 9f1d 63a5 ad8f 90a5
000001d0: 5aa0 7425 909e da25 0c24 0a22 291d da20
000001e0: 8b1d f99f a595 a420 571f 259f 2a1f 659e
000001f0: 6fa4 bd0b dd25 de9d 4e24 2527 ac9a 2c26

hash i1 [64]
55 101 56 55 57 55 100 55
50 97 98 53 55 57 101 97
100 50 55 99 101 57 97 53
97 56 55 101 101 50 99 49
55 98 100 52 55 97 50 55
56 51 99 97 97 102 55 56
57 99 98 51 97 100 56 102
55 52 55 98 52 52 100 101
00000000: 3765 3837 3937 6437 3261 6235 3739 6561
00000010: 6432 3763 6539 6135 6138 3765 6532 6331
00000020: 3762 6434 3761 3237 3833 6361 6166 3738
00000030: 3963 6233 6164 3866 3734 3762 3434 6465
