cache/ViT-L-14_openai_mediums.safetensors (safetensors, 146127 bytes, 2 tensors)

embeds f2 [95, 768]
000000 be 23 ee a0 48 a4 54 a4 e0 21 d1 9c 3e 1d 49 22
       0.01512 -0.00963 -0.01672 -0.0169 0.011475 -0.004704 0.00512 0.012276
000010 25 27 34 a6 01 24 2a aa 1d a6 66 26 ab a5 dd a4
       0.02791 -0.02423 0.01564 -0.04816 -0.02388 0.025 -0.02214 -0.019
000020 e5 a5 49 2a 15 26 06 9a 91 2b 23 9c ac a4 fc 21
       -0.02303 0.0491 0.02376 -0.002941 0.0591 -0.00404 -0.01825 0.01169
000030 9b a0 19 a6 a2 a2 1a 9b 46 2d 2b 9d 00 97 bf 16
       -0.008995 -0.02382 -0.012955 -0.003468 0.0824 -0.005047 -0.001709 0.001647
000040 17 14 51 0e 52 99 51 29 40 28 81 29 b5 a6 6f 19
       0.0009985 0.0003855 -0.002598 0.04153 0.0332 0.043 -0.0262 0.002653
000050 2d a1 f8 98 2d 20 38 a6 af 29 24 24 25 22 b0 a0
       -0.01011 -0.002426 0.008156 -0.02429 0.0444 0.01617 0.012 -0.009155
000060 4a 18 93 24 6b a7 25 a4 51 20 fc 25 2e a4 9a 98
       0.002094 0.01787 -0.02898 -0.01619 0.00843 0.02338 -0.01633 -0.002247
000070 a2 1f 29 a0 68 21 c9 a6 41 1c 50 a4 9c 28 8e 15
       0.007454 -0.008125 0.01056 -0.0265 0.004154 -0.01685 0.036 0.001356
000080 4f 22 c1 24 1b 26 7d 23 32 28 0a 95 a4 a8 02 21
       0.01232 0.01857 0.02385 0.014626 0.03278 -0.00123 -0.03625 0.00978
000090 af a0 ce a1 c0 1d db 27 f3 14 d3 29 41 28 5b 0c
       -0.00915 -0.01134 0.005615 0.03069 0.001208 0.0455 0.03323 0.0002658
0000a0 f6 a8 4a 22 ec 25 95 15 c2 21 85 9a fe 1d aa 20
       -0.03876 0.01228 0.02313 0.001363 0.011246 -0.003183 0.00585 0.00911
0000b0 1e a4 c7 0a 8d 18 d8 a4 e6 9c 22 a9 99 18 cf 24
       -0.01608 0.0002068 0.002222 -0.01892 -0.004784 -0.0401 0.002245 0.01878
0000c0 f9 1e 08 a0 bf 25 14 a6 53 22 0f a9 ef 18 e4 10
       0.00681 -0.00787 0.02245 -0.02374 0.01235 -0.03952 0.002409 0.000597
0000d0 5b 15 de 25 a6 27 59 8a 44 a6 e2 23 05 1d 91 a5
       0.0013075 0.02292 0.02988 -0.0001937 -0.02448 0.015396 0.0049 -0.02174
0000e0 6a 1c f1 a3 7c 9a 07 28 84 a4 57 a2 81 28 be 95
       0.00431 -0.01551 -0.003166 0.03146 -0.01764 -0.01238 0.0352 -0.001402
0000f0 9b a4 03 9e 33 a4 54 a1 ce 20 90 29 3a 13 99 25
       -0.01799 -0.00587 -0.0164 -0.01041 0.009384 0.04346 0.000882 0.02187
000100 00 98 c5 9a 40 a4 3e 1c 71 1d 0f a7 21 27 16 a2
       -0.001953 -0.003305 -0.0166 0.004143 0.005314 -0.02757 0.02785 -0.01189
000110 c1 a8 11 25 8c a5 eb 19 ca 21 9b 25 32 a4 7e 21
       -0.03714 0.01979 -0.02167 0.00289 0.01131 0.0219 -0.01639 0.01073
000120 19 a8 f7 a6 7c 29 ab 28 f0 9c e1 1e 1f a4 79 24
       -0.032 -0.0272 0.04285 0.03647 -0.00482 0.006718 -0.0161 0.01747
000130 f0 22 c1 26 6a 9c 3c 28 81 20 ed 24 55 20 0c a9
       0.01355 0.02638 -0.00431 0.03308 0.0088 0.01924 0.00846 -0.03943
000140 ff 1f aa 23 be a6 fb 23 0e a9 ec a4 d6 a4 e7 a4
       0.00781 0.01497 -0.02634 0.01559 -0.0395 -0.01923 -0.01889 -0.01915
000150 37 0d 7f a4 7d 9e 99 9f 66 1f a3 9d b3 1e ec a5
       0.0003183 -0.01756 -0.006336 -0.00742 0.007225 -0.005505 0.006542 -0.02313
000160 65 18 bc a7 ca 29 cb 24 fa 25 41 22 03 a6 bc 23
       0.002146 -0.03021 0.04523 0.01872 0.02335 0.012215 -0.02348 0.01511
000170 84 27 39 a9 cb a1 9c a1 dc a5 8d aa 2e 24 19 a7
       0.02936 -0.0408 -0.011314 -0.010956 -0.02289 -0.05118 0.01633 -0.02773
000180 ca 27 95 a7 6a a1 7f ad 85 a1 c9 25 d3 22 f8 a6
       0.03043 -0.02962 -0.010574 -0.0859 -0.01078 0.0226 0.01333 -0.02722
000190 95 a3 a6 27 be a8 9c 1a 0f 20 88 a0 e6 1c 01 20
       -0.01481 0.02988 -0.03705 0.003227 0.00793 -0.00885 0.004784 0.00782
0001a0 75 90 72 19 c1 24 5d 25 ca 21 a4 9c 13 20 b8 a6
       -0.000544 0.002659 0.01857 0.02095 0.01131 -0.00453 0.00796 -0.02625
0001b0 c2 24 96 28 c0 a5 76 a6 75 27 0d 99 0c 14 09 a4
       0.01859 0.03583 -0.02246 -0.02524 0.02913 -0.002466 0.000988 -0.01576
0001c0 e9 a6 e3 98 e0 9a 63 a3 b8 a4 4d a5 99 22 3d 25
       -0.027 -0.002386 -0.003357 -0.01443 -0.01843 -0.0207 0.012886 0.02046
0001d0 57 aa 64 24 87 a8 b4 a4 2c 14 4d aa a3 26 f5 a0
       -0.04953 0.01715 -0.03537 -0.01837 0.001019 -0.04922 0.02592 -0.00968
0001e0 94 25 9e aa 6d 9e 8f 24 ee a7 06 0c 3f a4 ce 29
       0.02179 -0.0517 -0.006275 0.0178 -0.03098 0.0002456 -0.01659 0.04535
0001f0 02 96 a8 25 5e 20 1b 93 04 24 38 25 ff a4 6f 1e
       -0.001467 0.0221 0.00853 -0.0008674 0.01569 0.02039 -0.01952 0.006283

hash i1 [64]
000000 37 66 66 66 33 61 62 30 62 30 63 66 36 62 38 35
       55 102 102 102 51 97 98 48 98 48 99 102 54 98 56 53
000010 30 31 35 36 35 35 38 62 34 36 31 61 61 63 65 31
       48 49 53 54 53 53 56 98 52 54 49 97 97 99 101 49
000020 30 66 66 65 38 64 66 37 32 34 63 39 63 36 39 63
       48 102 102 101 56 100 102 55 50 52 99 57 99 54 57 99
000030 64 61 37 39 36 30 66 38 34 37 38 62 66 37 34 65
       100 97 55 57 54 48 102 56 52 55 56 98 102 55 52 101
