cache/ViT-L-14_openai_negative.safetensors (safetensors, 63180 bytes, 2 tensors)

embeds f2 [41, 768]
000000 91 22 6b 9b bf 28 3d a5 4d a6 47 a1 f5 88 02 20
       0.012825 -0.003622 0.03708 -0.02046 -0.02461 -0.01031 -0.0001513 0.00783
000010 a7 1b b2 a7 f1 19 8c a3 0b a4 d8 99 f2 a9 ba 27
       0.003736 -0.03006 0.002901 -0.01474 -0.0158 -0.002853 -0.04645 0.03018
000020 59 20 6d 28 9f 23 fe 9f 44 28 74 9e da a8 dc 19
       0.00849 0.03458 0.014885 -0.007805 0.03333 -0.0063 -0.0379 0.002861
000030 4a a5 9a aa 8a 18 c0 23 11 29 e1 92 bc 1f 35 a8
       -0.02066 -0.05157 0.002216 0.01514 0.03958 -0.0008397 0.007553 -0.03287
000040 0a a8 a4 0a d8 a8 17 28 d0 a1 bb 28 c7 a9 da a9
       -0.03156 0.0002027 -0.03784 0.03195 -0.01135 0.03696 -0.04514 -0.04572
000050 39 20 5e 9c 06 28 3a a0 d0 28 54 99 79 a5 d2 17
       0.00825 -0.004265 0.03143 -0.008255 0.0376 -0.002602 -0.02138 0.001909
000060 b2 1d 2b 9d 08 a4 88 a8 af 22 33 1c f4 1b f4 1a
       0.00556 -0.005047 -0.01575 -0.0354 0.013054 0.0041 0.003883 0.003395
000070 aa a4 90 24 b0 22 19 a4 56 25 a1 23 83 28 e5 24
       -0.01822 0.01782 0.01306 -0.016 0.02084 0.0149 0.03525 0.01912
000080 e7 25 62 1f 42 28 28 2a 4d 26 94 a5 ea a2 60 26
       0.02306 0.00721 0.03326 0.0481 0.02461 -0.02179 -0.013504 0.0249
000090 20 a6 ed 9e e8 1e 25 28 b5 a8 12 28 0d 25 f9 a9
       -0.02393 -0.006763 0.006744 0.03238 -0.03677 0.0318 0.01973 -0.04666
0000a0 08 a4 3c 10 36 25 28 a8 33 a3 ec 1e a2 9e 3b 28
       -0.01575 0.000517 0.02036 -0.03247 -0.01406 0.00676 -0.006477 0.03305
0000b0 86 a3 c6 28 e9 28 be 1e 27 21 6c a7 8a 98 2c 9c
       -0.014694 0.0373 0.03836 0.006584 0.01006 -0.02899 -0.002216 -0.004074
0000c0 c9 24 c1 21 d4 2a c2 a8 c1 a1 be 94 17 a0 9a a5
       0.01869 0.01124 0.05334 -0.03717 -0.01124 -0.001158 -0.00799 -0.02188
0000d0 29 21 22 28 f4 20 bc a5 75 29 a4 20 c3 24 d4 a2
       0.01008 0.0323 0.009674 -0.0224 0.04263 0.00906 0.0186 -0.013336
0000e0 2e 1d 7c a0 8e 9f 2e 29 0b a8 8c a8 e5 19 71 a2
       0.00506 -0.00876 -0.007378 0.04047 -0.0316 -0.03552 0.002878 -0.01258
0000f0 75 a2 44 26 a0 96 40 a2 a2 a4 7d 21 be 23 c3 a7
       -0.01261 0.02448 -0.001617 -0.01221 -0.0181 0.01072 0.01512 -0.03032
000100 f7 9a 7b a0 11 23 1f a8 7c 97 82 a8 49 20 2e 23
       -0.0034 -0.00875 0.0138 -0.0322 -0.001827 -0.03522 0.00837 0.01402
000110 c1 a0 9f 27 57 94 98 23 0e 29 f6 a6 9d a4 fc a5
       -0.009285 0.02977 -0.00106 0.01483 0.0395 -0.02719 -0.01802 -0.02338
000120 4a a8 ed a7 4d 2c 10 a0 d5 a8 a7 21 c7 21 99 a2
       -0.0335 -0.03096 0.0672 -0.007935 -0.03775 0.01104 0.011284 -0.012886
000130 17 29 90 26 38 1d 0f 24 2b 20 4f 25 5a 9a f3 a7
       0.03976 0.02563 0.005096 0.01585 0.00814 0.02074 -0.003101 -0.03105
000140 97 28 7c 18 b2 a7 89 21 c0 a5 a8 19 91 21 26 a8
       0.03586 0.00219 -0.03006 0.01081 -0.02246 0.002762 0.01087 -0.0324
000150 6d a8 9f a7 28 a4 b2 a5 27 26 7f 1e d3 20 c1 a5
       -0.03458 -0.02977 -0.01624 -0.02225 0.02403 0.006344 0.00942 -0.02248
000160 73 98 45 ad 83 2b 40 9e c8 28 69 9b 1c a9 8f a0
       -0.002172 -0.08234 0.0587 -0.006104 0.03735 -0.003618 -0.03992 -0.0089
000170 7f 99 94 a7 9f a0 88 98 f6 a5 56 a9 f6 1c bd a5
       -0.002684 -0.0296 -0.009026 -0.002213 -0.02328 -0.0417 0.004845 -0.02242
000180 ab 11 08 a5 e0 a1 6e ae 42 1a 81 28 06 21 c9 a3
       0.000692 -0.01965 -0.011475 -0.10046 0.003056 0.0352 0.00981 -0.015205
000190 bf 02 ad a1 48 1c 08 a5 f3 25 2c 1c bd 21 54 20
       4.19e-05 -0.011086 0.00418 -0.01965 0.02324 0.004074 0.01121 0.00845
0001a0 29 22 49 9e 03 25 f3 21 f7 18 b9 9d 76 9a bd a1
       0.01203 -0.006138 0.01958 0.01162 0.002424 -0.00559 -0.003155 -0.01121
0001b0 2c 1f 7c 27 06 14 04 26 f7 20 22 a5 38 a8 12 a5
       0.007004 0.02924 0.000982 0.0235 0.0097 -0.02005 -0.03296 -0.0198
0001c0 8f 9a 89 9b 01 a9 5b 1c b4 21 9a a6 44 22 af 26
       -0.003202 -0.00368 -0.0391 0.004253 0.01114 -0.02579 0.01224 0.02611
0001d0 fa a7 9a 17 de 99 b6 9b d1 a5 1b 11 4a 25 3c a7
       -0.03116 0.001856 -0.002865 -0.003765 -0.02272 0.000623 0.02066 -0.02826
0001e0 40 26 4f a1 7a 91 0c 23 34 a1 65 26 19 1c bb 2a
       0.02441 -0.01037 -0.0006685 0.01376 -0.01016 0.02498 0.004 0.05258
0001f0 6c 9f 25 2b 3d 9b 7b 14 74 97 a0 1d e8 90 12 1e
       -0.007248 0.05582 -0.003534 0.001094 -0.00182 0.005493 -0.000599 0.005928

hash i1 [64]
000000 37 61 39 32 61 31 65 62 30 63 32 35 66 30 36 63
       55 97 57 50 97 49 101 98 48 99 50 53 102 48 54 99
000010 39 63 65 65 66 65 63 35 36 30 62 39 65 63 36 38
       57 99 101 101 102 101 99 53 54 48 98 57 101 99 54 56
000020 66 37 37 38 61 61 64 63 35 63 34 38 33 31 61 66
       102 55 55 56 97 97 100 99 53 99 52 56 51 49 97 102
000030 61 39 38 61 61 35 62 39 65 62 61 36 61 66 61 38
       97 57 56 97 97 53 98 57 101 98 97 54 97 102 97 56
